BiSeNet(
  (cp): ContextPath(
    (resnet): Resnet18(
      (conv1): Conv2d(3, 64, kernel_size=(7, 7), stride=(2, 2), padding=(3, 3), bias=False)
      (bn1): InPlaceABNSync(64, eps=1e-05, momentum=0.1, affine=True, activation=leaky_relu, slope=0.01)
      (maxpool): MaxPool2d(kernel_size=3, stride=2, padding=1, dilation=1, ceil_mode=False)
      (layer1): Sequential(
        (0): BasicBlock(
          (conv1): Conv2d(64, 64, kernel_size=(3, 3), stride=(1, 1), padding=(1, 1), bias=False)
          (bn1): InPlaceABNSync(64, eps=1e-05, momentum=0.1, affine=True, activation=leaky_relu, slope=0.01)
          (conv2): Conv2d(64, 64, kernel_size=(3, 3), stride=(1, 1), padding=(1, 1), bias=False)
          (bn2): InPlaceABNSync(64, eps=1e-05, momentum=0.1, affine=True, activation=none)
          (relu): ReLU(inplace=True)
        )
        (1): BasicBlock(
          (conv1): Conv2d(64, 64, kernel_size=(3, 3), stride=(1, 1), padding=(1, 1), bias=False)
          (bn1): InPlaceABNSync(64, eps=1e-05, momentum=0.1, affine=True, activation=leaky_relu, slope=0.01)
          (conv2): Conv2d(64, 64, kernel_size=(3, 3), stride=(1, 1), padding=(1, 1), bias=False)
          (bn2): InPlaceABNSync(64, eps=1e-05, momentum=0.1, affine=True, activation=none)
          (relu): ReLU(inplace=True)
        )
      )
      (layer2): Sequential(
        (0): BasicBlock(
          (conv1): Conv2d(64, 128, kernel_size=(3, 3), stride=(2, 2), padding=(1, 1), bias=False)
          (bn1): InPlaceABNSync(128, eps=1e-05, momentum=0.1, affine=True, activation=leaky_relu, slope=0.01)
          (conv2): Conv2d(128, 128, kernel_size=(3, 3), stride=(1, 1), padding=(1, 1), bias=False)
          (bn2): InPlaceABNSync(128, eps=1e-05, momentum=0.1, affine=True, activation=none)
          (relu): ReLU(inplace=True)
          (downsample): Sequential(
            (0): Conv2d(64, 128, kernel_size=(1, 1), stride=(2, 2), bias=False)
            (1): InPlaceABNSync(128, eps=1e-05, momentum=0.1, affine=True, activation=none)
          )
        )
        (1): BasicBlock(
          (conv1): Conv2d(128, 128, kernel_size=(3, 3), stride=(1, 1), padding=(1, 1), bias=False)
          (bn1): InPlaceABNSync(128, eps=1e-05, momentum=0.1, affine=True, activation=leaky_relu, slope=0.01)
          (conv2): Conv2d(128, 128, kernel_size=(3, 3), stride=(1, 1), padding=(1, 1), bias=False)
          (bn2): InPlaceABNSync(128, eps=1e-05, momentum=0.1, affine=True, activation=none)
          (relu): ReLU(inplace=True)
        )
      )
      (layer3): Sequential(
        (0): BasicBlock(
          (conv1): Conv2d(128, 256, kernel_size=(3, 3), stride=(2, 2), padding=(1, 1), bias=False)
          (bn1): InPlaceABNSync(256, eps=1e-05, momentum=0.1, affine=True, activation=leaky_relu, slope=0.01)
          (conv2): Conv2d(256, 256, kernel_size=(3, 3), stride=(1, 1), padding=(1, 1), bias=False)
          (bn2): InPlaceABNSync(256, eps=1e-05, momentum=0.1, affine=True, activation=none)
          (relu): ReLU(inplace=True)
          (downsample): Sequential(
            (0): Conv2d(128, 256, kernel_size=(1, 1), stride=(2, 2), bias=False)
            (1): InPlaceABNSync(256, eps=1e-05, momentum=0.1, affine=True, activation=none)
          )
        )
        (1): BasicBlock(
          (conv1): Conv2d(256, 256, kernel_size=(3, 3), stride=(1, 1), padding=(1, 1), bias=False)
          (bn1): InPlaceABNSync(256, eps=1e-05, momentum=0.1, affine=True, activation=leaky_relu, slope=0.01)
          (conv2): Conv2d(256, 256, kernel_size=(3, 3), stride=(1, 1), padding=(1, 1), bias=False)
          (bn2): InPlaceABNSync(256, eps=1e-05, momentum=0.1, affine=True, activation=none)
          (relu): ReLU(inplace=True)
        )
      )
      (layer4): Sequential(
        (0): BasicBlock(
          (conv1): Conv2d(256, 512, kernel_size=(3, 3), stride=(2, 2), padding=(1, 1), bias=False)
          (bn1): InPlaceABNSync(512, eps=1e-05, momentum=0.1, affine=True, activation=leaky_relu, slope=0.01)
          (conv2): Conv2d(512, 512, kernel_size=(3, 3), stride=(1, 1), padding=(1, 1), bias=False)
          (bn2): InPlaceABNSync(512, eps=1e-05, momentum=0.1, affine=True, activation=none)
          (relu): ReLU(inplace=True)
          (downsample): Sequential(
            (0): Conv2d(256, 512, kernel_size=(1, 1), stride=(2, 2), bias=False)
            (1): InPlaceABNSync(512, eps=1e-05, momentum=0.1, affine=True, activation=none)
          )
        )
        (1): BasicBlock(
          (conv1): Conv2d(512, 512, kernel_size=(3, 3), stride=(1, 1), padding=(1, 1), bias=False)
          (bn1): InPlaceABNSync(512, eps=1e-05, momentum=0.1, affine=True, activation=leaky_relu, slope=0.01)
          (conv2): Conv2d(512, 512, kernel_size=(3, 3), stride=(1, 1), padding=(1, 1), bias=False)
          (bn2): InPlaceABNSync(512, eps=1e-05, momentum=0.1, affine=True, activation=none)
          (relu): ReLU(inplace=True)
        )
      )
    )
    (arm16): AttentionRefinementModule(
      (conv): ConvBNReLU(
        (conv): Conv2d(256, 128, kernel_size=(3, 3), stride=(1, 1), padding=(1, 1), bias=False)
        (bn): InPlaceABNSync(128, eps=1e-05, momentum=0.1, affine=True, activation=leaky_relu, slope=0.01)
      )
      (conv_atten): Conv2d(128, 128, kernel_size=(1, 1), stride=(1, 1), bias=False)
      (bn_atten): InPlaceABNSync(128, eps=1e-05, momentum=0.1, affine=True, activation=none)
      (sigmoid_atten): Sigmoid()
    )
    (arm32): AttentionRefinementModule(
      (conv): ConvBNReLU(
        (conv): Conv2d(512, 128, kernel_size=(3, 3), stride=(1, 1), padding=(1, 1), bias=False)
        (bn): InPlaceABNSync(128, eps=1e-05, momentum=0.1, affine=True, activation=leaky_relu, slope=0.01)
      )
      (conv_atten): Conv2d(128, 128, kernel_size=(1, 1), stride=(1, 1), bias=False)
      (bn_atten): InPlaceABNSync(128, eps=1e-05, momentum=0.1, affine=True, activation=none)
      (sigmoid_atten): Sigmoid()
    )
    (conv_head32): ConvBNReLU(
      (conv): Conv2d(128, 128, kernel_size=(3, 3), stride=(1, 1), padding=(1, 1), bias=False)
      (bn): InPlaceABNSync(128, eps=1e-05, momentum=0.1, affine=True, activation=leaky_relu, slope=0.01)
    )
    (conv_head16): ConvBNReLU(
      (conv): Conv2d(128, 128, kernel_size=(3, 3), stride=(1, 1), padding=(1, 1), bias=False)
      (bn): InPlaceABNSync(128, eps=1e-05, momentum=0.1, affine=True, activation=leaky_relu, slope=0.01)
    )
    (conv_avg): ConvBNReLU(
      (conv): Conv2d(512, 128, kernel_size=(1, 1), stride=(1, 1), bias=False)
      (bn): InPlaceABNSync(128, eps=1e-05, momentum=0.1, affine=True, activation=leaky_relu, slope=0.01)
    )
  )
  (sp): SpatialPath(
    (conv1): ConvBNReLU(
      (conv): Conv2d(3, 64, kernel_size=(7, 7), stride=(2, 2), padding=(3, 3), bias=False)
      (bn): InPlaceABNSync(64, eps=1e-05, momentum=0.1, affine=True, activation=leaky_relu, slope=0.01)
    )
    (conv2): ConvBNReLU(
      (conv): Conv2d(64, 64, kernel_size=(3, 3), stride=(2, 2), padding=(1, 1), bias=False)
      (bn): InPlaceABNSync(64, eps=1e-05, momentum=0.1, affine=True, activation=leaky_relu, slope=0.01)
    )
    (conv3): ConvBNReLU(
      (conv): Conv2d(64, 64, kernel_size=(3, 3), stride=(2, 2), padding=(1, 1), bias=False)
      (bn): InPlaceABNSync(64, eps=1e-05, momentum=0.1, affine=True, activation=leaky_relu, slope=0.01)
    )
    (conv_out): ConvBNReLU(
      (conv): Conv2d(64, 128, kernel_size=(1, 1), stride=(1, 1), bias=False)
      (bn): InPlaceABNSync(128, eps=1e-05, momentum=0.1, affine=True, activation=leaky_relu, slope=0.01)
    )
  )
  (ffm): FeatureFusionModule(
    (convblk): ConvBNReLU(
      (conv): Conv2d(256, 256, kernel_size=(1, 1), stride=(1, 1), bias=False)
      (bn): InPlaceABNSync(256, eps=1e-05, momentum=0.1, affine=True, activation=leaky_relu, slope=0.01)
    )
    (conv1): Conv2d(256, 64, kernel_size=(1, 1), stride=(1, 1), bias=False)
    (conv2): Conv2d(64, 256, kernel_size=(1, 1), stride=(1, 1), bias=False)
    (relu): ReLU(inplace=True)
    (sigmoid): Sigmoid()
  )
  (conv_out): BiSeNetOutput(
    (conv): ConvBNReLU(
      (conv): Conv2d(256, 256, kernel_size=(3, 3), stride=(1, 1), padding=(1, 1), bias=False)
      (bn): InPlaceABNSync(256, eps=1e-05, momentum=0.1, affine=True, activation=leaky_relu, slope=0.01)
    )
    (conv_out): Conv2d(256, 19, kernel_size=(1, 1), stride=(1, 1), bias=False)
  )
  (conv_out16): BiSeNetOutput(
    (conv): ConvBNReLU(
      (conv): Conv2d(128, 64, kernel_size=(3, 3), stride=(1, 1), padding=(1, 1), bias=False)
      (bn): InPlaceABNSync(64, eps=1e-05, momentum=0.1, affine=True, activation=leaky_relu, slope=0.01)
    )
    (conv_out): Conv2d(64, 19, kernel_size=(1, 1), stride=(1, 1), bias=False)
  )
  (conv_out32): BiSeNetOutput(
    (conv): ConvBNReLU(
      (conv): Conv2d(128, 64, kernel_size=(3, 3), stride=(1, 1), padding=(1, 1), bias=False)
      (bn): InPlaceABNSync(64, eps=1e-05, momentum=0.1, affine=True, activation=leaky_relu, slope=0.01)
    )
    (conv_out): Conv2d(64, 19, kernel_size=(1, 1), stride=(1, 1), bias=False)
  )
)